ai/classify-demo.pth (torch_old, 1132 bytes, 2 tensors)

fc1.weight f4 [7, 20]
000000 9b 26 95 bd 76 c0 d1 3d 66 4f 9b 3d 29 0d a0 3d
       -0.07282754 0.10241787 0.075835034 0.0781501
000010 8a 9c 5e 3d bb 51 bf 3d 71 41 c0 bd 71 4c f1 3b
       0.054348506 0.09341761 -0.09387482 0.007363849
000020 a0 ae 75 bd 08 46 2f bd 46 bc d2 3c c2 5e 68 bd
       -0.05998099 -0.042791396 0.025724541 -0.056730993
000030 06 00 7d 3d 8a 70 02 3c 7b 99 22 3d 4c 92 88 bd
       0.0617676 0.007961402 0.03969715 -0.06668529
000040 14 ec 98 3d 00 b6 b7 bd 9f 41 01 3e 73 b1 3a 3d
       0.07466903 -0.089702606 0.12622689 0.045579385
000050 81 df ef be 88 b0 98 bf 7d 7e a9 bf 25 08 30 bf
       -0.46850207 -1.1928873 -1.3241726 -0.6876243
000060 3d 23 cc 3f 8a 7f 9c 3f fb 53 4b 40 38 85 40 be
       1.5948254 1.2226422 3.1770008 -0.18800819
000070 03 44 77 3f fb cb 16 bf ce d6 60 3e ff 98 61 3f
       0.9658815 -0.58905 0.21956941 0.8812408
000080 6e 53 4f 40 dd 6e 4c 40 a8 37 cc 3f ab 81 fb be
       3.2394671 3.1942666 1.5954485 -0.49122366
000090 08 7b 89 40 e2 ba 92 c0 ef ba d5 3e a5 49 47 c0
       4.2962685 -4.585313 0.41744182 -3.11387
0000a0 78 26 84 3e 92 f9 9a 3f dc 0d 68 40 58 58 34 be
       0.258106 1.2107413 3.625846 -0.17611825
0000b0 a3 3f 2e c0 26 88 2b 40 c0 55 fc bf 2e 81 c9 3f
       -2.722634 2.6801848 -1.9713669 1.5742548
0000c0 c4 65 01 3f 20 2d 12 40 13 1e 05 3f 9c 33 01 3f
       0.5054591 2.2840042 0.51999015 0.50469375
0000d0 f3 83 77 c0 3e c1 98 c0 eb be 2a c0 f1 23 87 c0
       -3.8674285 -4.773589 -2.6679027 -4.2231374
0000e0 3b cd 17 40 14 09 7b 40 d4 d0 8d 40 0b 23 99 3e
       2.3719013 3.922429 4.4317417 0.29909548
0000f0 a3 cc 66 3f d4 3b 57 bf ba c1 89 40 d2 8b 0f bf
       0.90156 -0.84075665 4.3048983 -0.56072724
000100 01 ff 49 c0 1f ea 33 c0 05 2c 51 c0 49 d7 62 40
       -3.1561892 -2.8111646 -3.2683117 3.54439
000110 75 a3 fc bf 99 25 17 bf 2a f9 5e c0 12 9d 1e 40
       -1.9737383 -0.59041744 -3.4839578 2.4783368
000120 51 f9 8e 40 47 8e 32 40 15 b1 cb 3f 62 11 88 40
       4.467934 2.789934 1.5913416 4.252122
000130 a6 25 cf 3f fd d3 4c c0 6c aa c6 be 90 3f 18 3f
       1.6183364 -3.2004387 -0.38801897 0.5947199
000140 b9 21 ce bf bd af 9b 40 48 8a 38 c0 0a e3 13 c0
       -1.6104041 4.8652024 -2.88344 -2.3107324
000150 c6 24 d5 be 22 ea d0 be 12 61 22 3f d8 03 78 3e
       -0.41629618 -0.4080363 0.6342937 0.24220216
000160 43 f5 01 bf 73 84 ee be 24 04 1f c0 51 e0 bd 3e
       -0.50764865 -0.46585426 -2.4846277 0.37085202
000170 f0 0e 05 bf 38 ef 73 3f f5 ca 82 bf 29 57 11 40
       -0.5197592 0.95286894 -1.0218188 2.2709448
000180 dc 58 b6 bf 07 28 0f c0 40 2b 58 3e 1d 0b 05 40
       -1.4245868 -2.236818 0.21110249 2.0788033
000190 7a 6a 96 40 c8 1b a2 be f3 c2 25 c0 e8 4c 6c bf
       4.7004976 -0.3166182 -2.5900238 -0.9230485
0001a0 1f bd a2 bf aa e1 1f 3f 33 09 12 3f 77 99 7c bf
       -1.2713965 0.6245371 0.57045287 -0.9867167
0001b0 c0 e8 10 bf 67 f2 35 bf 66 e9 b1 bf 63 4f cf 3d
       -0.5660515 -0.71073 -1.3899353 0.10122564
0001c0 28 7f c1 3f 93 3b c3 bf 91 10 99 bf eb 8d 95 3f
       1.511693 -1.5252556 -1.1958181 1.1683935
0001d0 c2 4b 40 3f 8c e1 69 be 7a f8 c6 bf 54 75 3b 3e
       0.751156 -0.22839946 -1.5544579 0.18306476
0001e0 36 28 91 3f 00 51 cf 3f bd 09 a2 3f 10 a5 a6 3f
       1.1340396 1.6196594 1.2659222 1.3019123
0001f0 6b c1 3e 40 3f 87 2f c0 cc 4d 29 bf 7d ac a6 3f
       2.9805553 -2.7426298 -0.66134334 1.3021389
000200 94 60 1e c0 f5 92 41 bf a4 23 13 40 c9 b3 f9 3f
       -2.4746447 -0.75614864 2.2990503 1.9507991
000210 34 cc 1b bf 01 47 81 be 67 a1 40 3d f8 c3 85 bf
       -0.60858464 -0.25249484 0.047028925 -1.045043
000220 f1 79 15 3f 00 91 c2 bf 08 9a a8 bf 27 9b fb 3f
       0.5838919 -1.52005 -1.3172007 1.9656724

fc1.bias f4 [7]
000000 28 43 a1 be 5b 8f 21 bf d6 7e fd bd 6a fc 15 3f
       -0.3149655 -0.6310937 -0.12377708 0.5858828
000010 3b f3 86 3f 07 3e ed 3f 79 f5 d8 be
       1.0542978 1.8534554 -0.4237478
